Fraud_Pytorch.pth (torch, 3485 bytes, 5 tensors)

layer1.weight f4 [8, 9]
0.3629221 0.41232523 -0.1255786 0.21636881 -0.19764361 0.20316306 -0.17227027 0.099470824
0.29168624 -0.236682 0.28277847 0.037837774 0.3112582 0.097286455 0.17328492 -0.044311043
0.2648492 0.044204924 0.12819289 0.28407046 -0.24075331 0.07917466 0.0133865755 0.5801313
-0.2973196 -0.30122745 -0.24854256 -0.1920397 0.07435886 -0.33402354 0.32427567 -0.2795038
0.22342837 0.03754702 -0.10947121 0.2474671 0.44093448 0.5298664 -0.10446885 -0.3396237
-0.14415613 -0.013105599 0.0614257 0.15004201 0.40895617 -0.1067342 0.21417065 -0.09037365
-0.12815258 -0.5697032 -0.29886964 -0.122121766 -0.22759888 0.45692858 -0.006933772 0.048176467
0.26367846 0.0012118885 0.4170926 -0.3871507 0.3855535 -0.38910657 0.0483936 -0.47651303
-0.13768777 0.23669632 0.22777043 -0.19442874 -0.44757107 -0.2861455 0.656023 -0.53033435
00000000: edd0 b93e 4b1c d33e ad97 00be c98f 5d3e
00000010: 1663 4abe fa09 503e 9e67 30be 5cb7 cb3d
00000020: e657 953e c45c 72be 57c8 903e c8fb 1a3d
00000030: 3c5d 9f3e 1f3e c73d 9a71 313e 7f7f 35bd
00000040: 509a 873e 3910 353d ff44 033e af71 913e
00000050: 0988 76be 5326 a23d 5e53 5b3c 7c83 143f
00000060: 463a 98be 7c3a 9abe f181 7ebe 0ea6 44be
00000070: 7549 983d 2205 abbe 7607 a63e 1f1b 8fbe
00000080: 68ca 643e e7ca 193d 7132 e0bd 0468 7d3e
00000090: 2ac2 e13e 53a5 073f c4f3 d5bd 28e3 adbe
000000a0: aa9d 13be deb8 56bc 8499 7b3d 9da4 193e
000000b0: b462 d13e 7697 dabd 8d4f 5b3e d215 b9bd
000000c0: 6e3a 03be 12d8 11bf 7105 99be fa1a fabd
000000d0: ae0f 69be 8bf2 e93e b234 e3bb b054 453d
000000e0: dd00 873e 3bd8 9e3a 298d d53e 9e38 c6be
000000f0: 4567 c53e fa38 c7be 5e38 463d 84f9 f3be
00000100: 06fe 0cbe 8560 723e a73c 693e 5418 47be
00000110: 0928 e5be aa81 92be 20f1 273f fec3 07bf

layer1.bias f4 [8]
0.39075497 -0.29619077 -0.090878405 -0.25877914 0.006316218 0.08828487 0.38601145 0.88926554
00000000: 0911 c83e 51a6 97be 751e babd b37e 84be
00000010: 47f8 ce3b b3ce b43d 4ba3 c53e e8a6 633f

layer2.weight f4 [4, 8]
0.48959765 -0.21733712 0.56679934 -0.05572879 0.6481544 0.45981738 0.013880801 -0.4693114
-0.18086399 0.10547623 0.07472779 -0.090141535 0.20761481 0.23802091 -0.25910687 -0.18907541
0.27852798 -0.12023773 -0.12534046 -0.34209704 -0.22030681 0.07439727 -0.07390828 -0.26082793
-0.19471279 -0.35007897 -0.46407983 -0.268638 -0.48056358 -0.46242198 0.87561667 1.2778162
00000000: 8bac fa3e 9f8d 5ebe c319 113f df43 64bd
00000010: 72ed 253f 2f6d eb3e 4d6c 633c 9549 f0be
00000020: 6934 39be ec03 d83d e20a 993d 209c b8bd
00000030: fa98 543e c1bb 733e a8a9 84be fc9c 41be
00000040: 389b 8e3e 333f f6bd 4059 00be 5827 afbe
00000050: 1c98 61be 995d 983d 395d 97bd 3d8b 85be
00000060: ca62 47be 8d3d b3be df9b edbe ec8a 89be
00000070: 6e0c f6be 93c2 ecbe 6a28 603f 7b8f a33f

layer2.bias f4 [4]
0.7578635 -0.33024898 -0.25597396 0.6201637
00000000: 5803 423f 6516 a9be 050f 83be 0cc3 1e3f

layer3.weight f4 [1, 4]
1.3094168 -0.43974513 -0.20413718 -1.813568
00000000: f89a a73f 4626 e1be 5609 51be ff22 e8bf
